…
n_ratio=0, mode='cooperative', moving_prey=False, naction_heads=[5, 2], nactions='1', nagents=5, nenemies=1, nfriendly=5, no_stay=False, normalize_rewards=False, nprocesses=1, num_actions=[5, 2], num_epochs=4000, num_inputs=576, obstacles=10, plot=False, plot_env='main', random=False, recurrent=True, rnn_type='LSTM', save='/gcn-results/coop_gat_d12_a5_o10', save_every=1000, seed=1525, share_weights=False, tau=1.0, value_coeff=0.01, vision=1)
====================================================================================================
Model log:

CommNetMLP(
  (heads): ModuleList(
    (0): Linear(in_features=64, out_features=5, bias=True)
    (1): Linear(in_features=64, out_features=2, bias=True)
  )
  (mapdecode): Sequential(
    (0): Linear(in_features=64, out_features=64, bias=True)
    (1): Linear(in_features=64, out_features=108, bias=True)
    (2): LeakyReLU(negative_slope=0.01)
  )
  (gnn_decoder): Sequential(
    (0): Linear(in_features=64, out_features=64, bias=True)
    (1): Linear(in_features=64, out_features=36, bias=True)
    (2): LeakyReLU(negative_slope=0.01)
  )
  (state2query): Linear(in_features=64, out_features=16, bias=True)
  (state2key): Linear(in_features=64, out_features=16, bias=True)
  (state2value): Linear(in_features=64, out_features=64, bias=True)
  (W_O): Linear(in_features=64, out_features=64, bias=False)
  (gcn_encoder): GAT(
    (attention_0): GraphAttentionLayer (18 -> 32)
    (out_att): GraphAttentionLayer (32 -> 16)
  )
  (encoder): Sequential(
    (0): Linear(in_features=16, out_features=64, bias=True)
    (1): ReLU()
    (2): Linear(in_features=64, out_features=64, bias=True)
  )
  (hidd_encoder): Linear(in_features=64, out_features=64, bias=True)
  (f_module): LSTMCell(64, 64)
  (C_modules): ModuleList(
    (0): Linear(in_features=64, out_features=64, bias=True)
  )
  (tanh): Tanh()
  (value_head): Linear(in_features=64, out_features=1, bias=True)
)
====================================================================================================

Epoch 1	Reward [-1.87 -1.69 -1.7  -1.81 -1.73]	Time 37.98s
Success: 0.00
Steps-taken: 40.00
Comm-Action: [0.24 0.25 0.24 0.26 0.25]
Map loss: 1261.5397430034175
loss: 2.7748288574366966
action_loss: 0.3086788128397266
value_loss: 3.68237080909462
Epoch 2	Reward [-1.64 -1.53 -1.79 -1.67 -1.58]	Time 38.32s
…
